school_recommender_mlp.onnx (onnx, 12077 bytes, 6 tensors)

coefficient f4 [6, 64]
0	0xbd8f986a	-0.070114926
1	0x3e9c98a2	0.305852
2	0x3df3e92c	0.119097084
3	0xafddeb35	-4.036679e-10
4	0xbe686ba4	-0.22697312
5	0xbe4bebb7	-0.19914137
6	0xbe9a1437	-0.30093548
7	0x3e4f4a89	0.20243277
8	0x3e3dc063	0.18530421
9	0x3e2b6177	0.16736399
10	0xbcb04b39	-0.021520244
11	0x3e6d51c4	0.23175722
12	0x3ea2ea69	0.31819466
13	0xbaa34dfb	-0.0012459153
14	0xbb224587	-0.002476068
15	0xbb1d1f7c	-0.0023975065
16	0xbdeff7d5	-0.11717192
17	0x3c1fc481	0.00975144
18	0xbccd684e	-0.02507415
19	0xb8a89db9	-8.0402424e-05
20	0x3d1cf4c8	0.03831938
21	0xbced0bc9	-0.028936284
22	0xbdb62a81	-0.08894826
23	0xbdb5cc35	-0.0887684
24	0xbd437436	-0.04771825
25	0x3dfe821b	0.124271594
26	0xbe364611	-0.17800166
27	0xaa877cf8	-2.4067532e-13
28	0x3d757130	0.059922397
29	0xbea2b958	-0.3178203
30	0x3d1c65e7	0.03818312
31	0xbe651c29	-0.22374023
32	0xbe95bafd	-0.29244223
33	0x3e908bba	0.28231603
34	0x3c9b7027	0.018974377
35	0x3e5d1687	0.21590625
36	0xb827cfc8	-4.0009414e-05
37	0xbe82166d	-0.25407735
38	0x3de11aa2	0.10991408
39	0xbc36c7a4	-0.0111559965
40	0xbe115040	-0.14190769
41	0xbc984445	-0.018587241
42	0xbc9b6876	-0.01897071
43	0x3e6f8ec2	0.23394302
44	0xbe025b13	-0.12730055
45	0x368a3c6b	4.119754e-06
46	0xbdcb3b50	-0.09923422
47	0xbc34f959	-0.011045777
48	0x3b882903	0.0041552796
49	0xbb187f1f	-0.002326913
50	0x3e91ace2	0.28452212
51	0x3a6b7e59	0.0008983366
52	0x3e5d7829	0.21627869
53	0x3e502e51	0.20330168
54	0x3e4e7b60	0.20164251
55	0x3e5d5325	0.21613748
56	0xbe77c56a	-0.24196401
57	0xbe26246b	-0.1622483
58	0xbe88977f	-0.26678082
59	0xb733fb5e	-1.0727757e-05
60	0x316ed9ec	3.4757432e-09
61	0xbe18fc4e	-0.14939997
62	0x3e25b918	0.16183889
63	0xbd8faf32	-0.07015838
64	0xbdf43b90	-0.11925423
65	0x3d7018db	0.058617454
66	0xbe4296b9	-0.19002809
67	0x3ae68a85	0.001758889
68	0xbe7c4e53	-0.24639253
69	0x3e8c76d8	0.2743442
70	0x3e3cccc9	0.18437494
71	0xbdfce8c8	-0.12349087
72	0xbe9f93e9	-0.31167534
73	0x3e0f4a3a	0.13993159
74	0x38998439	7.320237e-05
75	0x3e09aaf3	0.13444118
76	0x3e0480aa	0.12939706
77	0xbc4eb8a1	-0.012617261
78	0xb4f6c3d3	-4.5963552e-07
79	0xbbf54a79	-0.0074856845
80	0x3e4d5bf5	0.2005461
81	0x3d9971f5	0.07492439
82	0xbe2d8ccb	-0.1694824
83	0xbc67ef37	-0.014156154
84	0xbdbd27e4	-0.09236124
85	0xbc9cc495	-0.019136706
86	0x3e41369b	0.18868487
87	0x3d837658	0.06419057
88	0x3e451838	0.1924752
89	0xbca1285a	-0.019672561
90	0xbe87e10e	-0.2653889
91	0x38d08147	9.942293e-05
92	0x3e18ecbd	0.14934058
93	0x3d85927e	0.06522082
94	0x3e05df76	0.13073525
95	0x3bdb1dd0	0.0066869035
96	0x3d1b77c7	0.037956025
97	0x3cbdf1d8	0.02318661
98	0xbca8d179	-0.020607697
99	0xbe711750	-0.2354405
100	0xbc9fc434	-0.019502737
101	0x3e070b4b	0.13187902
102	0xbe0d889a	-0.1382164
103	0xbcbc69d6	-0.022999685
104	0x3e0a950c	0.1353342
105	0xbe169725	-0.14706095
106	0xaf7ec600	-2.3171509e-10
107	0x3dcb6f7f	0.099333756
108	0xbe0698fa	-0.13144293
109	0xbc47f658	-0.012204729
110	0xbe0b0bd0	-0.13578725
111	0xbe4d7ae5	-0.20066412
112	0x3e779ca6	0.2418085
113	0x3b036788	0.0020050723
114	0xbc967e24	-0.018370695
115	0x3bcc8d3c	0.0062424224
116	0x3e0f9385	0.14021118
117	0xbe79c39b	-0.24391024
118	0x3e9bf55e	0.30460638
119	0x3c155ac9	0.009115883
120	0x3de438ef	0.11143672
121	0x3eb70ef0	0.35753584
122	0xbdf555ef	-0.11979281
123	0xbc04c75d	-0.008104173
124	0xba5858bc	-0.00082529685
125	0xbd9a24c4	-0.07526544
126	0x3e22664f	0.1585934
127	0x3e4b329f	0.19843529
128	0xbe957ee3	-0.2919837
129	0x3d2c8ae5	0.042124648
130	0xbdd7b8dd	-0.10533307
131	0xba7dbddc	-0.00096794753
132	0xbe4c1ac9	-0.19932093
133	0xbd5cd755	-0.053916294
134	0x3e947a42	0.28999525
135	0xbdacbf33	-0.08434906
136	0xbc0c6ed8	-0.008571349
137	0x3e5d8ced	0.2163579
138	0xb4718dd2	-2.2496468e-07
139	0x3e86326c	0.26210344
140	0x3eb53ddb	0.35398754
141	0xb9cff3fb	-0.00039663896
142	0xa9101097	-3.1988813e-14
143	0xb84dff55	-4.9113605e-05
144	0xbe1589af	-0.14603303
145	0xbe6f272a	-0.23354784
146	0x3cbd21a6	0.023087334
147	0x290c7212	3.1185185e-14
148	0xbe726db6	-0.23674664
149	0xbca03024	-0.019554205
150	0x3e771172	0.24127749
151	0xbe28bb6b	-0.16477744
152	0xbe651a5c	-0.22373337
153	0xbc2725d5	-0.010201891
154	0x3e3c8a0c	0.18412036
155	0xba0e9362	-0.0005438832
156	0x3dcf6e49	0.10128457
157	0x3e163673	0.14669208
158	0xbe32a8aa	-0.17447153
159	0x3daf5a3b	0.08562132
160	0xbdd91dea	-0.10601409
161	0x3e3b8326	0.18311748
162	0x341b16ce	1.4443796e-07
163	0x3ca95ac6	0.020673167
164	0xbc2af314	-0.010433931
165	0x3e27bbff	0.16380309
166	0xbe112be9	-0.14176907
167	0xbe0ce540	-0.13759327
168	0xbe3d670c	-0.1849634
169	0x3cee45f9	0.0290861
170	0x375cf20c	1.3169378e-05
171	0xbea13f60	-0.31493664
172	0x3d0b3a2e	0.03399103
173	0xba612eae	-0.00085900247
174	0x3d9f4124	0.077760965
175	0xbe5a8a06	-0.21341714
176	0x3db69527	0.08915167
177	0x3168d90f	3.3883827e-09
178	0x3ee328cd	0.44367066
179	0xbbb27200	-0.0054457188
180	0xbe0a316f	-0.1349542
181	0xbe55198e	-0.2081053
182	0x3e891df9	0.2678068
183	0x3e4353c2	0.1907492
184	0xbdb73e53	-0.08947434
185	0x3d7663d8	0.060153812
186	0x3e191ca4	0.14952332
187	0x2d06605e	7.638416e-12
188	0x2b2d78c1	6.1629526e-13
189	0xbe0b4482	-0.13600352
190	0xbe82fbac	-0.25582635
191	0x3e2e9db6	0.1705235
192	0x3e7c4952	0.24637344
193	0x3d32d7ce	0.04366284
194	0xbdb54d56	-0.08852641
195	0xb5b52087	-1.3495018e-06
196	0x3e170098	0.1474632
197	0x3e7522a8	0.23939002
198	0x3e832f40	0.25621986
199	0x3e2e9474	0.17048818
200	0x3cc9020f	0.024537114
201	0xbe84512b	-0.25843176
202	0xbb6e8bbe	-0.003639921
203	0x3e8240d2	0.2544008
204	0x3d41762c	0.047231838
205	0xbcc2947b	-0.023752442
206	0xbc14a2fc	-0.009072062
207	0x36964e06	4.4794315e-06
208	0xbe973968	-0.29535985
209	0xbe3ea1e0	-0.18616438
210	0xbe008b98	-0.12553251
211	0x380974fa	3.277229e-05
212	0x3d94ae0b	0.072597586
213	0x3c8748ed	0.016514266
214	0x3d596e18	0.05308351
215	0xbe10eaf6	-0.1415213
216	0xbd9a13db	-0.075233184
217	0x3e2c4123	0.16821723
218	0x3e00750a	0.12544647
219	0x3b8ffdbb	0.0043942607
220	0x3def8228	0.11694747
221	0x3dca63aa	0.09882291
222	0xbe5ab0a7	-0.2135645
223	0xbd69dd19	-0.05709562
224	0xbde76781	-0.11299039
225	0xbe5eec7e	-0.21769902
226	0x3ca66d64	0.020315833
227	0xbda0b7f5	-0.07847587
228	0x3c088e6f	0.00833474
229	0x3db6cb00	0.08925438
230	0x3e396c3d	0.18107696
231	0xbb371b94	-0.0027940022
232	0x3c89d346	0.016824376
233	0x3d03fbfc	0.032222733
234	0xbaf42018	-0.0018625287
235	0x3e1b5d62	0.15172341
236	0xbde2c2c9	-0.110723086
237	0xbcaa8242	-0.020814065
238	0x3da4d5fa	0.08048625
239	0xbe1b35d9	-0.1515726
240	0x3e7b23d7	0.2452539
241	0x3c8ad788	0.016948476
242	0x3e2d1491	0.16902377
243	0xb3a1e382	-7.53853e-08
244	0xbe854b61	-0.26034072
245	0x3e846742	0.2586003
246	0xbdd7a4c9	-0.10529477
247	0x3e81c453	0.25345096
248	0x3e8dbbfc	0.27682483
249	0x3e348834	0.17630082
250	0xbe043405	-0.12910469
251	0x3142ef71	2.8366822e-09
252	0x3b94ab98	0.004537057
253	0xbddb6a3c	-0.10713622
254	0xbe422d74	-0.18962651
255	0x3d29d7eb	0.04146568

intercepts f4 [1, 64]
0	0x3e00aeb4	0.12566644
1	0x3e59187d	0.21200748
2	0xbe0882b1	-0.13331105
3	0xbe4167ae	-0.18887207
4	0x3e070a65	0.13187559
5	0x3e3001ab	0.17188136
6	0x3e839705	0.25701156
7	0xbd6c7f89	-0.057738815
8	0xbc7216fd	-0.014775989
9	0x3e36321c	0.17792553
10	0xbdbee7fb	-0.093215905
11	0x3e6c86b4	0.2309826
12	0x3e6681c4	0.22510439
13	0xbd2a4c7a	-0.04157684
14	0x3e166ba8	0.14689505
15	0x3e189f44	0.14904505
16	0xbe676844	-0.22598368
17	0x3e63e50c	0.22255343
18	0x3e07d7f4	0.13265973
19	0x3e43bdda	0.19115391
20	0xbde676c5	-0.11253122
21	0x3e59dc59	0.21275462
22	0x3c07e0c3	0.008293333
23	0xbe98f5d8	-0.29875064
24	0x3e5784cd	0.21046753
25	0xbe86852c	-0.26273477
26	0xbe129cf1	-0.14317681
27	0x3e86ed50	0.2635293
28	0x3e745a4a	0.23862568
29	0xbc883532	-0.016626928
30	0x3d5878f5	0.05284973
31	0xbd4e2fdd	-0.050338615
32	0xbe15637f	-0.14588736
33	0xbd0ea24a	-0.03482274
34	0x3dcee1b8	0.10101646
35	0x3e26b265	0.1627899
36	0x3e2ed429	0.1707312
37	0x3e20c749	0.15701021
38	0xbe7ca13b	-0.2467088
39	0x3a18dae8	0.00058309594
40	0xbe8a502f	-0.270143
41	0xbbe8cf17	-0.007104765
42	0xbd0c3b4b	-0.034236234
43	0x3e52bb85	0.20579346
44	0xbdd6ccbc	-0.10488269
45	0xbe659a9c	-0.2242226
46	0xbe51cced	-0.20488329
47	0x3deba0a2	0.11505248
48	0x3da95ef7	0.08270066
49	0xbe6f29ff	-0.23355864
50	0xbe349e29	-0.17638458
51	0x3df0ffd7	0.117675476
52	0xbe8c24b9	-0.27371767
53	0x3e3a5f21	0.18200351
54	0x3e3c962f	0.18416665
55	0xbe80d779	-0.25164393
56	0xbe7e5a56	-0.24839148
57	0x3ea03a02	0.31294256
58	0xbd83ee05	-0.06441883
59	0xbd9b1fc7	-0.075744204
60	0x3e3b8d6c	0.18315667
61	0x3e85fa1d	0.26167384
62	0x3e9007b9	0.28130892
63	0x3e0f233d	0.13978286

coefficient1 f4 [64, 32]
0	0xbc99260d	-0.018694902
1	0xbba01bb8	-0.004886117
2	0x3ad5baed	0.0016306319
3	0xbd0d3d94	-0.034482554
4	0xbce6f165	-0.028191278
5	0x3e488c3c	0.19584745
6	0xbe5612f4	-0.20905668
7	0x3d4da20d	0.05020337
8	0xbe7794f5	-0.24177916
9	0xab532232	-7.5009714e-13
10	0xbe341467	-0.17585908
11	0xbe540453	-0.20704775
12	0xbb3fb03f	-0.0029249338
13	0x3ce7d3f5	0.028299311
14	0x38b3c897	8.572748e-05
15	0xbb6ca94f	-0.0036111658
16	0x3e7e1fc5	0.24816807
17	0x312c0940	2.5034552e-09
18	0xbdddef3e	-0.108366475
19	0x3e04e1ca	0.12976757
20	0xbe0e9910	-0.13925576
21	0x3e965791	0.29363683
22	0xbe7c48f2	-0.24637201
23	0x3e6d014f	0.2314503
24	0xbe5910a7	-0.21197759
25	0x3b5c59e6	0.003362292
26	0x39d38d84	0.00040350494
27	0x3c43457b	0.011918421
28	0xbe86bd14	-0.2631613
29	0x3d6a7121	0.057236794
30	0x3c18e862	0.009332748
31	0x3bfbf8f6	0.0076895906
32	0x3d47c24f	0.04876929
33	0x36cb2063	6.0536418e-06
34	0xbc7674fa	-0.015042538
35	0x3d8fbc0e	0.070182905
36	0x3d48c61e	0.049017064
37	0x3e478908	0.19485867
38	0xbe7b01b0	-0.24512362
39	0xbdfef65c	-0.12449333
40	0x3e686463	0.22694544
41	0x3defb74a	0.117048815
42	0xbcbdd8d0	-0.023174673
43	0x3d6cc813	0.057807993
44	0xbc9abe37	-0.01888953
45	0xbe20b6ba	-0.15694705
46	0xaad993c5	-3.864948e-13
47	0xbd96dae6	-0.0736597
48	0x3d04b294	0.032396868
49	0xbbad353e	-0.005285888
50	0x3e655f68	0.22399676
51	0x3e7c83cf	0.24659656
52	0x3db18cc9	0.08669431
53	0x3bfff238	0.007810857
54	0xbd9c5b3c	-0.07634589
55	0x3e25264f	0.16127895
56	0x3dc72241	0.0972333
57	0xbaa5151f	-0.0012594796
58	0x3e4457ff	0.19174193
59	0x3a6d5676	0.0009053716
60	0x3e7f1d7a	0.24913588
61	0x3ddfcff6	0.10928337
62	0xbc49f312	-0.012326019
63	0xbd1d1d2d	-0.038357902
64	0x3e53166a	0.20614019
65	0x3b108fcc	0.0022058366
66	0xbda6720d	-0.08127222
67	0xbe7319e6	-0.23740348
68	0xbd134db6	-0.035962783
69	0x3e1a41ce	0.15064165
70	0x3e641585	0.22273834
71	0xbe2f4c69	-0.17118992
72	0x3d189683	0.037252914
73	0xbbd47c0f	-0.0064845155
74	0x3e735309	0.23762144
75	0x3e372b6c	0.17887658
76	0xbc63f872	-0.013914214
77	0xbc9dba23	-0.019253796
78	0x2e0e5190	3.2359504e-11
79	0xbdee03b3	-0.11621799
80	0xbe8b43fa	-0.272003
81	0x3b0d1a96	0.002153074
82	0x3e13bd82	0.1442776
83	0x3e7f48c6	0.24930105
84	0x3e6e92c7	0.23298179
85	0x3d0d1697	0.03444537
86	0x3e1f3a55	0.15549596
87	0x3e61ab77	0.22038065
88	0x3e37e92a	0.17960039
89	0xb8e9cb56	-0.0001114818
90	0xbd1c151b	-0.038106065
91	0xbb1d593c	-0.0024009487
92	0x3e5db5dd	0.21651407
93	0x3d42b32b	0.04753415
94	0xb9649887	-0.00021800595
95	0x3db09e79	0.08623976
96	0xb06667aa	-8.382083e-10
97	0xb1f9f94f	-7.275197e-09
98	0xbb4c79f3	-0.0031200617
99	0x356211db	8.4217544e-07
100	0xaa5b5b1f	-1.9482721e-13
101	0x396bfed4	0.00022506277
102	0xaa622da4	-2.0088667e-13
103	0x3adf02f8	0.0017014435
104	0xabb68c38	-1.2970796e-12
105	0x2cd1220b	5.943917e-12
106	0x3b2dee4c	0.002653974
107	0xaedcf53c	-1.0048004e-10
108	0xbb105b2d	-0.0022027001
109	0xbc1c1b95	-0.00952806
110	0x39008eb3	0.00012260191
111	0xb0b26492	-1.2979788e-09
112	0x372eccef	1.0418923e-05
113	0xb9baef77	-0.000356551
114	0xbb0a53b8	-0.002110703
115	0xbc352910	-0.011057153
116	0xb34d1b0b	-4.7754877e-08
117	0xaca7163f	-4.7488953e-12
118	0xaf5d4780	-2.0125235e-10
119	0xacf6390c	-6.998074e-12
120	0x3b864642	0.004097731
121	0xb399dd53	-7.164876e-08
122	0xaa3cf559	-1.6782876e-13
123	0x39a8ea34	0.00032217952
124	0xaf76f5c9	-2.246089e-10
125	0xb0ecff12	-1.7243755e-09
126	0x3b0729e6	0.0020624339
127	0x3bf45776	0.007456715
128	0xbe3afbf6	-0.18260178
129	0x3bb77758	0.0055989437
130	0xbc767d27	-0.015044487
131	0xbdf603da	-0.120124534
132	0xbc02ae4a	-0.007976124
133	0x3e70d2fc	0.23517984
134	0xbc3da287	-0.011574394
135	0xbdb1252b	-0.08649667
136	0x3d7201a3	0.059083592
137	0xbcd0cd3c	-0.025488488
138	0xbe5ab3ae	-0.21357605
139	0xbe3cb204	-0.18427283
140	0xbcd24596	-0.025667947
141	0xbe312db6	-0.17302594
142	0xbb043b3f	-0.0020176915
143	0x3d92ca07	0.0716744
144	0xbe5354d4	-0.20637828
145	0xb3e6f198	-1.0754155e-07
146	0x3e3e2138	0.1856736
147	0xbc3f27e1	-0.011667223
148	0x3d8b5529	0.068033524
149	0xbe27e4f9	-0.1639594
150	0xbe139682	-0.14412883
151	0xbe69f319	-0.2284664
152	0xbe2ba177	-0.16760813
153	0xb7e87357	-2.7710264e-05
154	0xbe330c8e	-0.17485258
155	0xbb94db50	-0.0045427456
156	0xbe406c8b	-0.18791406
157	0xbcc8c968	-0.0245101
158	0xb9e26e80	-0.00043188408
159	0xbd8e17ac	-0.06938109
160	0xbbfebfaa	-0.007774313
161	0x368aee4b	4.1404614e-06
162	0xbdaaa431	-0.08332098
163	0x3e1dac83	0.15397839
164	0x3d65ce7a	0.056105115
165	0xbe5ba1a6	-0.21448383
166	0x3e3a2865	0.18179472
167	0x3e45b1d7	0.19306122
168	0xbe5a7d2f	-0.21336816
169	0xbd81f4e7	-0.063455395
170	0x3e1aaac1	0.151042
171	0x3de88e98	0.113553226
172	0xbcb14be3	-0.02164263
173	0xbe147323	-0.14497046
174	0x3169a1b4	3.399788e-09
175	0xbbe7d383	-0.0070747747
176	0x3d818054	0.06323305
177	0x3170840b	3.4999654e-09
178	0xbcbc43a3	-0.02298147
179	0x3e00ec7e	0.12590215
180	0xbe79bc4e	-0.24388239
181	0xbe0c3944	-0.1369372
182	0x3dee32e0	0.116307974
183	0x3e52179b	0.20516817
184	0x3bca0e4f	0.0061662565
185	0x2b55c08a	7.5940003e-13
186	0xbe571e21	-0.21007587
187	0x2b85b2a7	9.499804e-13
188	0x3d44e48b	0.048069518
189	0xbe041bf3	-0.12901287
190	0xbcf7a91c	-0.030232005
191	0xbd73b970	-0.05950302
192	0xbeb1d489	-0.34732464
193	0xb5cbf878	-1.5196993e-06
194	0xbd0b32e1	-0.03398407
195	0x3c73c3a9	0.014878192
196	0xbe400757	-0.187528
197	0x3e4657b7	0.19369398
198	0x3d45ccb2	0.048290916
199	0xbce94fa4	-0.028480358
200	0x3e0c1ec0	0.13683605
201	0xa8846f00	-1.4703083e-14
202	0xbe8e6839	-0.2781389
203	0x3d1a5adb	0.037684303
204	0xadeda2ff	-2.7016165e-11
205	0x3e463813	0.19357328
206	0xacc3a794	-5.5608382e-12
207	0xbdf0e54f	-0.11762487
208	0xbd97785a	-0.07396002
209	0x30ad3f67	1.2605427e-09
210	0x3da27b4b	0.079336725
211	0x3df4d624	0.119549066
212	0xbdaf2939	-0.085527845
213	0x3dfebc37	0.12438243
214	0x3dc04a38	0.09389156
215	0xbdeefd10	-0.116693616
216	0xbe6394ea	-0.22224775
217	0xbac9e342	-0.0015402811
218	0xbe0e5ec8	-0.13903344
219	0xbaabf7d3	-0.0013120122
220	0x3e041e87	0.1290227
221	0xbe25df2c	-0.16198415
222	0xba825d11	-0.0009945949
223	0x3e502c0b	0.20329301
224	0xbe64444b	-0.22291677
225	0x2a1569ce	1.3270567e-13
226	0xbc775650	-0.015096262
227	0x3e74f399	0.2392105
228	0xbe2c8986	-0.16849336
229	0xbd693b35	-0.05694123
230	0x3e599fb5	0.2125233
231	0x3e3a1888	0.1817342
232	0x3e1c24c3	0.15248398
233	0xbd0914dc	-0.03346716
234	0xbe228098	-0.15869367
235	0x3db40f65	0.08791999
236	0xbb8e55af	-0.0043437104
237	0x3cb60931	0.02222118
238	0xab1f2c4f	-5.654964e-13
239	0xbdeccf03	-0.11562922
240	0x3dc9df49	0.098570414
241	0xba3c8e95	-0.0007192877
242	0xbdb6c90f	-0.08925068
243	0xbd264c85	-0.04060032
244	0xbc3d2eaf	-0.011546775
245	0xbdf4b211	-0.11948026
246	0xbe2fe11b	-0.17175715
247	0x3d6ac00d	0.05731206
248	0xbdc8c282	-0.098027244
249	0xae0900a8	-3.1150776e-11
250	0xbe3f30ac	-0.1867091
251	0x2a867e74	2.3890926e-13
252	0x3c737e5d	0.01486167
253	0xbe6bbbc3	-0.23020844
254	0xbc86fd64	-0.016478248
255	0xbe39f49a	-0.18159714

intercepts1 f4 [1, 32]
0	0x3cd1181a	0.025524188
1	0x3e3b2ced	0.18278857
2	0x3e66be2f	0.22533487
3	0xbd3daeac	-0.04630916
4	0x3e2139f6	0.15744767
5	0x3e00870f	0.12551521
6	0x3c44651b	0.011986996
7	0x3e5a535b	0.2132086
8	0xbe05dd6e	-0.1307275
9	0xbe4ece33	-0.20195846
10	0x3e3adbf1	0.18247963
11	0xbd07d2b6	-0.033159934
12	0x3e1eacc3	0.15495591
13	0x3e3a1d54	0.1817525
14	0xbe60058f	-0.2187712
15	0x3e37e574	0.17958623
16	0x39f1896a	0.00046069484
17	0x3baaed08	0.0052162446
18	0x3d6b39f6	0.057428323
19	0x3e5831d7	0.21112762
20	0xbe811d0c	-0.25217474
21	0xbd275d5b	-0.040860515
22	0x3e06332f	0.13105462
23	0x3dd703a4	0.10498741
24	0x3deb99cd	0.115039445
25	0xbe3b2b52	-0.18278244
26	0xbde9bf6e	-0.114134654
27	0xbd90ace1	-0.07064224
28	0x3e3b0cfd	0.18266673
29	0xbdc4d7b4	-0.096114546
30	0xbe21fef2	-0.1581991
31	0x3e6e64b3	0.23280601

coefficient2 f4 [32, 5]
0	0xbec56523	-0.38553724
1	0x3ec9b2a3	0.39394102
2	0x3e137456	0.14399847
3	0x3e878d8d	0.26475182
4	0xbe11ddb8	-0.14244735
5	0xbd933d23	-0.07189395
6	0x3b41d765	0.0029577848
7	0x3c92c28a	0.01791503
8	0x3b4f7d27	0.003166029
9	0xbcc34f3c	-0.023841493
10	0x3c932928	0.01796396
11	0x3cbaa129	0.022781925
12	0x3caddef3	0.021224475
13	0x3c061fd8	0.008186303
14	0x3d00ae69	0.03141633
15	0x3dc731e8	0.09726316
16	0xbeaa3fb8	-0.3325174
17	0xbc48bc4c	-0.012251925
18	0xbeaa2dbb	-0.33238015
19	0xbd55b6a2	-0.052176125
20	0xbd9653dd	-0.073402144
21	0xbeb349c5	-0.3501722
22	0xbdf3f7b2	-0.119124785
23	0xbe9b5c49	-0.30343845
24	0x3e8526ae	0.26006073
25	0x3ebcd402	0.368805
26	0xbeac04e3	-0.33597478
27	0x3eb90265	0.3613464
28	0x3ca19ed8	0.019729063
29	0xbe0b1147	-0.1358081
30	0xbe96dd60	-0.2946577
31	0xbb2b04ed	-0.0026095465
32	0x3e6c5adc	0.23081535
33	0x3e2f9926	0.17148265
34	0xbec0e9d6	-0.37678403
35	0xbea48d7e	-0.321392
36	0xbda6a70a	-0.08137329
37	0xbe2685a9	-0.16261925
38	0xbe62b6a6	-0.22139987
39	0xbe305c8f	-0.17222808
40	0x3e83621a	0.25660783
41	0x3eaba41f	0.33523652
42	0xbd8e44a6	-0.069466874
43	0x3ea6a815	0.3255011
44	0xbe044e22	-0.1292043
45	0xbc592dc3	-0.013255539
46	0xbd984ef3	-0.07436933
47	0x3d6c6bbc	0.05771993
48	0x3e555311	0.20832469
49	0x3d6540a7	0.05596986
50	0xbdbb94f3	-0.09159269
51	0x3df37b57	0.118887596
52	0xbe9e4eff	-0.30919644
53	0x3ea1a46a	0.3157075
54	0x3c08209c	0.008308556
55	0x3bd9dcd9	0.0066486415
56	0x3d8916b7	0.06693786
57	0x3dc3ef93	0.095671795
58	0xbeaff6c9	-0.3436797
59	0x3e070c78	0.1318835
60	0x3b9b3df8	0.004737612
61	0x3a2ef35b	0.0006673836
62	0x3c68d905	0.014211898
63	0x3c3c5d08	0.01149679
64	0xbc6ff609	-0.014646062
65	0x3da0d418	0.07852954
66	0xbe998d3f	-0.29990575
67	0x3e6ace17	0.2293018
68	0xbe5ad635	-0.21370776
69	0xbc48b8ec	-0.01225112
70	0xbacb494b	-0.0015509514
71	0xbcd858e6	-0.026409578
72	0x3766e7ee	1.3763069e-05
73	0xbd5f36b8	-0.054495543
74	0x3b7e6719	0.0038818775
75	0xbe0f07d9	-0.13967837
76	0xbecf4d20	-0.4048853
77	0x3c65b275	0.014019598
78	0xbebd0dbe	-0.36924547
79	0xbe297b8d	-0.16551037
80	0x3ee0e68e	0.439259
81	0xbee77345	-0.4520513
82	0x3e66a85c	0.22525162
83	0xbee064e2	-0.43826967
84	0xbe904f08	-0.28185296
85	0x3b51ca18	0.0032011326
86	0xb9f15f10	-0.0004603793
87	0xbd15bd61	-0.03655756
88	0xb80c43d1	-3.344176e-05
89	0xbb1a9eec	-0.002359326
90	0x3e8b6b80	0.27230453
91	0xbe1ce47b	-0.15321533
92	0x3e582261	0.21106865
93	0x3e9a67a4	0.30157197
94	0xbd2dcca5	-0.042431492
95	0x3eaeb719	0.34124067
96	0xbdcfd4f4	-0.101480395
97	0x3ebc68ed	0.36798802
98	0xbea41e14	-0.32054198
99	0x3e2d9160	0.16949987
100	0x3c3028d8	0.010751925
101	0xbda479e6	-0.08031063
102	0x3dbf5b22	0.09343554
103	0x3e1cbd98	0.153067
104	0xbec5ccad	-0.38632718
105	0xbe7cdd5a	-0.24693814
106	0x3e22f477	0.15913568
107	0x3e0d85a8	0.13820517
108	0x3eb8c13a	0.3608492
109	0x3e873dec	0.2641443
110	0x3eb766b7	0.35820553
111	0x3e151aa4	0.14560944
112	0xbe13d3a8	-0.14436209
113	0xbe9b059f	-0.30277726
114	0x3e6558fb	0.22397225
115	0x3e09dcda	0.13463154
116	0xbebbdb43	-0.3669072
117	0xbdecc661	-0.11561275
118	0x3ebb7725	0.36614338
119	0x3c9623b3	0.01832757
120	0xbd145058	-0.036209434
121	0xbd184faa	-0.03718535
122	0xbe6dfef7	-0.23241793
123	0xbde7d372	-0.11319627
124	0xbdbaebd5	-0.09127013
125	0xbd628b1c	-0.055308446
126	0x3bc24ef0	0.0059298202
127	0x3144eba2	2.8655696e-09
128	0x3c78ed57	0.015193305
129	0x3cb42fbd	0.02199542
130	0xbe60e7c3	-0.2196341
131	0x3defb3d4	0.11704221
132	0xbc97bf8a	-0.01852395
133	0x3e9d59ed	0.3073267
134	0xbe5eb538	-0.21748817
135	0x39b788e4	0.0003500647
136	0x3588fbc4	1.0206063e-06
137	0xba8bc24a	-0.0010662761
138	0xbcd1c3ae	-0.025606003
139	0x38a703d1	7.9638914e-05
140	0x3e8dd16f	0.27698848
141	0xbe914c77	-0.2837865
142	0x3df4ec43	0.11959126
143	0xbb75b6fc	-0.00374931
144	0x3e117135	0.14203341
145	0xbe812533	-0.25223693
146	0x3e9e799d	0.3095216
147	0xbe30b09a	-0.17254868
148	0xbdbee974	-0.093218714
149	0xbea8333d	-0.32851592
150	0xbd0bb3f6	-0.03410717
151	0xbb979707	-0.004626158
152	0xbca25e61	-0.019820394
153	0x3c955ffe	0.01823425
154	0xbd96e71d	-0.073683
155	0xbd9fdf94	-0.07806316
156	0xbdfe6ea0	-0.12423444
157	0xbecdc87b	-0.40192017
158	0xbea364ce	-0.31912845
159	0xbd30ec86	-0.043194316

intercepts2 f4 [1, 5]
0	0x3cf0dd8e	0.02940252
1	0xbd7186cf	-0.058966454
2	0x3c2ba773	0.010476935
3	0x3d8c1579	0.06840033
4	0xbec9833a	-0.3935793
