school_recommender_mlp.onnx (onnx, 6829 bytes, 6 tensors)

coefficient f4 [4, 32]
000000 52 cb ad bd 82 44 c6 3e 80 93 2b 3e 30 41 85 3d
       -0.08486046 0.38724142 0.16755486 0.06506574
000010 05 70 83 be 87 ed 87 be dc c0 ab be f7 41 93 3e
       -0.25671402 -0.26548406 -0.33545578 0.28761265
000020 d8 17 9c 3d 93 2b 30 3e f1 3e bb be 5f 91 bb 3e
       0.07621735 0.17204122 -0.36571458 0.36634347
000030 8b 69 7d 3e 6c ca 58 be ba b9 71 be c4 6e 70 be
       0.24747293 -0.21170968 -0.23606005 -0.23479754
000040 fe 2c 14 be 0b c9 92 3b 8a c9 90 bd c0 10 3d be
       -0.14470288 0.0044795326 -0.070696905 -0.18463421
000050 cb 4a d5 3d b9 38 8a be 19 36 40 be ad 52 f1 bd
       0.10414656 -0.269964 -0.18770637 -0.11783347
000060 83 c7 18 bd 56 6e 68 3e 2a 21 63 be e2 a5 f7 3b
       -0.037299644 0.2269834 -0.2218062 0.0075576166
000070 f0 94 76 3d 90 8e b0 be 9c 72 8a 3d 6e a0 91 be
       0.06020063 -0.34483767 0.06760141 -0.2844271
000080 9d e0 a8 be 2f e5 c5 3e 6b 8c b5 3e f4 fc 71 3e
       -0.32983866 0.38651416 0.35458693 0.2363165
000090 db 1d 0e be 05 88 9f be 58 33 05 3e 19 6f 80 bd
       -0.13878576 -0.31158462 0.13007867 -0.0627119
0000a0 00 66 9f be ec 7c 74 bb 3e 8a b5 be 2c 00 a2 3e
       -0.31132507 -0.0037305905 -0.35457033 0.31640756
0000b0 33 0a 33 be 31 e4 e7 3d 70 70 08 be cb 66 33 3c
       -0.1748436 0.11322821 -0.13324142 0.010949801
0000c0 01 f2 57 3d 11 7e 8c be 14 18 bc 3e 79 9c 55 3e
       0.052721027 -0.2743993 0.3673712 0.20860471
0000d0 9e 0c bf 3e 88 56 98 3e 36 f3 79 3d 88 f9 a8 3e
       0.37314314 0.29753518 0.06102296 0.33002877
0000e0 e8 20 ab be 9b da 80 be e4 0f b1 be 1c 2a fb bd
       -0.33423543 -0.25166783 -0.34582436 -0.12263891
0000f0 41 00 98 bd 12 e0 28 be 6c b7 7f 3e eb 51 0a be
       -0.074219234 -0.16491726 0.24972314 -0.13507812
000100 52 24 21 be 0e 90 5e 3d 4e a2 89 be d8 cd 6c 3e
       -0.15736511 0.0543366 -0.2688164 0.23125398
000110 56 f5 a4 be e2 e1 d3 3e b7 3a 4c 3e 8c cc 83 be
       -0.32218426 0.41383272 0.19944273 -0.25741994
000120 fa 79 d1 be 62 87 84 3e 71 51 17 3e 95 43 2c 3e
       -0.40913373 0.2588454 0.14777161 0.16822655
000130 b1 6f 4b 3e c4 2a a5 be ac d7 c6 bd 5e ef 93 be
       0.19866826 -0.3225919 -0.09709105 -0.2889356
000140 a6 5c a0 3e 66 5d ad 3d b4 35 1d be 81 f1 bd be
       0.31320685 0.0846508 -0.15352517 -0.37098315
000150 c5 2c 10 be f7 65 fb bd ce 8c 2c 3e 4d 6f cd 3d
       -0.14079578 -0.122753076 0.16850588 0.100309946
000160 b6 2e a1 3e 08 a9 dd bc 00 67 92 be 4b 74 1c 3e
       0.3148095 -0.02705814 -0.28594208 0.15278737
000170 f3 e8 42 3e ce 1f 1b 3d 8e f9 4d 3e cd e5 b7 bc
       0.19034176 0.03787213 0.20114729 -0.022448445
000180 3e 8b 4d 3c b4 85 15 bd 44 3f b9 be 76 d9 ab be
       0.012545405 -0.036504462 -0.3618108 -0.33564347
000190 53 c3 b6 be 14 11 06 3e a6 53 06 be de c8 87 bb
       -0.35695896 0.13092452 -0.13117847 -0.0041438183
0001a0 65 66 a6 3e 45 25 52 be 34 30 6e bd ce 8d 52 3e
       0.32499996 -0.2052203 -0.05815144 0.20561907
0001b0 6b 61 4b be d6 f4 a3 be 40 0b 1a be bb 4d 81 be
       -0.19861381 -0.32022732 -0.15043354 -0.25254616
0001c0 f2 d7 b6 3e d9 9d 71 3e 90 58 c5 3d 68 45 93 3e
       0.35711628 0.2359537 0.096360326 0.2876389
0001d0 8a 83 85 3e a9 d7 6d be f1 2e 9a 3e 49 ab 13 3d
       0.2607692 -0.23226799 0.30113938 0.036052022
0001e0 56 d7 7c 3e 91 72 a4 3e a7 6a 03 be 45 54 96 be
       0.24691519 0.32118657 -0.12833653 -0.29361168
0001f0 3a 15 4c be 03 af 3c bd fc 8d 7a 3e 63 6a 8e 3e
       -0.19929972 -0.04606534 0.24468225 0.27815542

intercepts f4 [1, 32]
000000 e7 1d ce be 3c 35 e6 3c a5 1a 8a bd 10 33 78 be
       -0.4025719 0.028101556 -0.06743363 -0.24238229
000010 f3 e9 9e be d4 39 ee bd 20 28 b9 3e 13 c7 1f be
       -0.31037864 -0.116321236 0.36163425 -0.15603285
000020 e9 34 2e 3c 3e 27 2a 3e 5a 09 e4 bd c1 a9 bb 3e
       0.010632732 0.16616532 -0.11134596 0.3665295
000030 09 53 c1 3e 70 88 4f be 73 3b 13 bb f1 7b 26 be
       0.37758663 -0.2026689 -0.0022465854 -0.16258217
000040 56 c3 23 be f5 e3 c9 be 67 5b 97 3d d3 56 4f bc
       -0.15992483 -0.3943173 0.073904805 -0.012654978
000050 72 a0 b4 be 71 12 39 be 85 20 a1 3e 43 aa 65 be
       -0.3527866 -0.18073441 0.31470123 -0.22428231
000060 f1 be 94 be 50 30 54 bc 3c 06 cb 3e 68 aa 57 be
       -0.29051927 -0.012950972 0.39653194 -0.21061099
000070 d6 eb 0f 3e fb bc 5a 3e 91 c5 6f be ce 5c 2d 3e
       0.14054808 0.21361153 -0.2341521 0.16929933

coefficient1 f4 [32, 32]
000000 c5 78 85 bd a3 92 85 3d b5 f6 86 3d 34 93 76 3c
       -0.065171756 0.06522109 0.065900244 0.015049744
000010 98 d0 68 be 55 5a 3b 3e 8b b7 bb bd aa 18 2e be
       -0.22735822 0.18296178 -0.091658674 -0.17001596
000020 f2 9d 83 be 64 f2 2e 3d 14 c8 b9 3d a5 10 8b be
       -0.2570644 0.04271163 0.09071365 -0.27161136
000030 77 85 99 3b df ed 15 be c7 42 94 3d 4e 79 35 be
       0.0046850997 -0.14641522 0.07239299 -0.17722055
000040 1b 75 c9 3d 82 3f 60 bd 99 66 79 3e 66 ea 4b be
       0.09836789 -0.054748066 0.24355544 -0.19913635
000050 4e 1d a4 bd f6 9c 5a be 0f 02 72 3e 6b fe 54 3e
       -0.08013402 -0.21348938 0.23633598 0.20800178
000060 3f 0e 03 be 86 54 a5 3d ad 5d 30 3e 89 a3 c7 3c
       -0.12798403 0.08072762 0.17223234 0.024369972
000070 d3 a7 48 3c f8 b1 0c be 12 17 67 be 4d 28 61 3e
       0.012247044 -0.13739765 -0.22567394 0.2198803
000080 82 44 6b 3e 96 dd 90 3d e2 78 a6 bd 01 5b 8c bd
       0.22975352 0.07073514 -0.08128525 -0.06853295
000090 db e5 f2 3d 52 9b 80 3e 95 7b 72 3e dc 1c 1c 3e
       0.11860248 0.251185 0.23679955 0.15245384
0000a0 35 80 d7 3d 36 96 6c be 58 2e 69 be ad cf 81 3e
       0.105225004 -0.23104176 -0.22771585 0.25353757
0000b0 81 8d 71 3d 40 59 a4 be 27 f6 61 be 28 68 a9 3d
       0.05897284 -0.32099342 -0.22066556 0.08271819
0000c0 33 9e 8e be 4b b8 3d be 38 b1 ad 3c d8 bd ee 3d
       -0.2785507 -0.18527333 0.021202669 0.116573036
0000d0 96 26 a6 3d 12 eb 31 be 82 4f 0c 3e b1 6a 18 be
       0.081128284 -0.17374828 0.13702205 -0.1488445
0000e0 02 52 b6 bd bc 7f 25 3e eb 8e b7 3d de 06 46 3e
       -0.089023605 0.16162008 0.08962806 0.19338557
0000f0 21 d3 af 3d 0e 20 67 3d 12 cb 8a be b0 8f c1 bd
       0.085851915 0.056427054 -0.27108055 -0.09451234
000100 e8 6f fd bd 98 69 0b be 57 dc 87 3e c2 17 52 bd
       -0.1237486 -0.136145 0.26535293 -0.05129219
000110 ec fd 5d 3e 63 3f 84 3d e9 c9 22 3e b4 27 80 3a
       0.21678895 0.064574026 0.15897335 0.0009777457
000120 f4 e3 10 3d 98 22 3a bb de ce 28 be bc ba ee 3d
       0.035373643 -0.0028401967 -0.16485164 0.116567105
000130 a5 e5 ea bd 22 af 88 be b9 9a 94 3d 83 ce 33 be
       -0.114695825 -0.26696116 0.072560735 -0.17559247
000140 34 b1 7b 3e d2 fc 81 3e d8 f9 6b 3e b2 c6 82 bd
       0.24579316 0.253882 0.23044527 -0.063855544
000150 e2 69 8b be d9 3b 74 3e 1e 23 06 bd 5b e7 85 3e
       -0.2722922 0.23850955 -0.032748334 0.26153073
000160 35 f8 84 3e 66 23 46 3e 0a b0 da bd 33 e8 63 bd
       0.25970617 0.19349441 -0.10678108 -0.055641364
000170 17 ff 44 3e a6 3b c0 bd ad 6f 38 be cc 21 ce 3c
       0.19237934 -0.09386377 -0.18011351 0.0251626
000180 22 18 80 3e 1f d7 0c 3e 08 74 02 3d da 97 64 be
       0.25018412 0.13753937 0.031848937 -0.22323552
000190 49 24 64 3d 8d 8b a2 3e 13 dd 4f be 79 f1 df 3b
       0.055698667 0.31747094 -0.20299177 0.0068342057
0001a0 93 02 5b 3e dc 48 02 3e a2 80 d7 3d fd 77 db 3d
       0.213877 0.12723106 0.10522582 0.10716245
0001b0 14 a4 d3 bd 7f b3 db bd 13 99 2b 3e cf 0d 2c 3e
       -0.1033403 -0.107275955 0.16757612 0.16802143
0001c0 5a b8 4e 3e da fa 6a 3e e8 87 8f 3b ec 62 97 3c
       0.20187512 0.22947255 0.004380215 0.018479787
0001d0 30 69 29 3e c4 c3 99 3d d1 1c 10 3e bf 66 4b 3e
       0.16544032 0.075080425 0.14073493 0.19863413
0001e0 06 be 5c 3e df 2f a8 bd d2 28 70 bd 56 f3 86 be
       0.21556863 -0.08212256 -0.05863268 -0.26357526
0001f0 14 d8 fc 3c b1 c2 88 be 79 2d 6c bc f1 8a 12 3c
       0.030864753 -0.26711038 -0.014415138 0.008944259
000200 f1 0c e4 bd 35 d1 2e 3d 95 c7 86 be ed ab 84 be
       -0.11135281 0.042679984 -0.26324144 -0.2591242
000210 9d a1 33 3e 08 1f 8e bd f1 4d 52 be 01 db 12 3c
       0.1754212 -0.069395125 -0.20537545 0.008963347
000220 c6 d0 13 3e 84 5d 1c be 24 d7 75 3d 93 d8 6b be
       0.1443511 -0.15270048 0.060019627 -0.23031835
000230 1e 43 80 be 41 4f 55 3c 00 ec 8d 3c b3 67 8b 3d
       -0.25051206 0.013019384 0.017324448 0.068068884
000240 32 0f f3 3d 62 bc 88 3e 76 84 d2 3b 49 2c b9 bd
       0.11868133 0.26706225 0.006424482 -0.0904165
000250 f2 03 23 3e 30 b9 f6 bd 34 69 df bc 0d 13 70 be
       0.15919474 -0.120470405 -0.027271844 -0.23444767
000260 8b 5d 88 be a8 ab 84 3e e1 c3 3b 3e 75 62 cf 3d
       -0.26633868 0.25912213 0.1833644 0.10126201
000270 18 48 2f bd 16 20 36 be a4 61 40 be d4 a9 07 be
       -0.042793363 -0.17785677 -0.18787247 -0.13248378
000280 c3 6d 7c 3c 26 4d 14 3e c1 93 a5 3d e7 4d 0a be
       0.015407029 0.14482555 0.080848224 -0.1350628
000290 95 46 82 3e 54 37 26 3e 5b f6 30 3d f4 ae 5b 3d
       0.25444475 0.16232044 0.043203693 0.053633645
0002a0 6c a1 e8 bc 30 2b 09 be bd a3 db bd 88 68 1c 3e
       -0.028397284 -0.13395381 -0.1072459 0.1527425
0002b0 bd b1 9e be 24 ae 83 be 3c 02 82 be 99 a1 83 be
       -0.3099498 -0.25718796 -0.2539233 -0.25709227
0002c0 13 a2 47 3e 2e 73 d8 3d f6 9f 2c bc 07 71 75 be
       0.1949542 0.10568844 -0.010536185 -0.23968898
0002d0 cb 6f a5 bc 60 41 98 bc 7e cb 53 be d2 7b bc bc
       -0.020194909 -0.01858586 -0.20683095 -0.02300826
0002e0 9c 24 46 bd 59 45 ae 3d c2 11 9a 3d 50 f1 92 be
       -0.048374757 0.08509321 0.07522918 -0.28699732
0002f0 66 d3 c3 bd 17 7b c4 3d f9 be b6 bc c0 33 51 3e
       -0.095618054 0.0959379 -0.02230786 0.20429897
000300 37 d6 a3 3d f9 6c 3c be c7 ea 74 be 1d 1b 91 3d
       0.079998426 -0.18400945 -0.23917685 0.070852496
000310 0a 02 88 be b7 df 23 3d 46 8d 7b 3e c4 db 0d 3d
       -0.26564056 0.040008273 0.2456561 0.034633413
000320 42 0c 5d bd d3 19 92 3d 8f 3b 92 bc 32 5d a1 3c
       -0.053966768 0.07133832 -0.017850665 0.01969776
000330 89 4f 7c 3e 38 a9 61 bd cd 38 84 3e 5d 24 66 3e
       0.24639715 -0.05509302 0.25824586 0.22474809
000340 e0 79 28 be 9f a8 75 be ec 62 62 be c0 8f 8a be
       -0.16452742 -0.23990105 -0.22108048 -0.27062798
000350 c1 44 66 be 4a 26 c0 3d 52 89 74 be 01 d4 bd bd
       -0.22487165 0.09382303 -0.23880509 -0.09268952
000360 48 2e 41 3e 75 01 89 be ef b1 2e 3e 89 9c e9 bd
       0.18865311 -0.26758924 0.17060064 -0.1140681
000370 39 be 57 be 96 48 d0 3d 10 c2 81 3d 2e 13 55 3e
       -0.21068658 0.10170095 0.063358426 0.20808098
000380 8e 25 0a 3e 46 61 3c 3e e1 65 e9 bd 71 23 46 be
       0.13490888 0.18396482 -0.11396385 -0.19349457
000390 60 2d 08 3e bd ac 4b 3e a4 3a 9c 3e 63 57 27 bd
       0.13298559 0.19890113 0.3051349 -0.040854823
0003a0 31 d9 72 bd 7e ae 17 3e 43 db ea bd 52 66 87 3e
       -0.05928916 0.14812657 -0.11467602 0.26445252
0003b0 c8 63 50 3e ca d7 7b bd b2 54 08 3e 3c 88 0a 3e
       0.20350564 -0.06148509 0.13313559 0.13528532
0003c0 0c f3 60 be 67 6d 64 3e 93 4a 01 3b f4 3b 5b 3e
       -0.21967715 0.22307359 0.0019728288 0.21409589
0003d0 8b 66 f8 bd ff 4d 73 3e 74 7f 96 bd 8d b3 90 be
       -0.121289335 0.23760222 -0.073485285 -0.28261986
0003e0 48 29 66 3e e9 54 7f be bb 6e bd bd 40 44 8b 3e
       0.22476685 -0.24934734 -0.09249636 0.27200508
0003f0 a0 18 8b 3e ee 0d 57 3d 88 44 81 3d 33 39 45 bd
       0.27167225 0.05250352 0.063118994 -0.048150253

intercepts1 f4 [1, 32]
000000 20 fe 84 be 25 e0 8a 3e 80 a2 eb 3d 38 05 80 be
       -0.25975132 0.27124134 0.11505604 -0.25003982
000010 8b 9e f9 bd 12 e4 0f 3e e7 73 84 be 04 0a 47 3d
       -0.12188443 0.14051846 -0.25869676 0.048593536
000020 61 e7 98 bd 14 a5 97 3d e0 af 98 be 31 95 69 3e
       -0.07466007 0.07404533 -0.29821682 0.22810818
000030 86 e8 8e 3e 7c 25 88 3e 8c 8c 1c 3e 2b f6 67 be
       0.27911776 0.26591098 0.1528799 -0.226525
000040 ee f2 21 3e f9 0e 95 be b2 d4 95 be 16 61 d7 bd
       0.15815327 -0.29112986 -0.29263836 -0.105165645
000050 d1 fb aa bc 8e 7b 27 3e f1 83 ea 3d fd e3 8c bc
       -0.020872029 0.16355726 0.11450947 -0.017198557
000060 a8 f3 0d be 91 28 a2 3e 32 fc 48 bd 7d b0 2d bd
       -0.13862479 0.31671575 -0.049068637 -0.04240464
000070 a6 fc 61 be 9e 8f 4a 3e ef ca c3 3d e8 00 3e be
       -0.22069034 0.19781348 0.09560191 -0.18555033

coefficient2 f4 [32, 5]
000000 9a e0 a0 be 8d c8 32 3e 0f 2a 01 3e 68 e4 35 be
       -0.31421357 0.17459317 0.126137 -0.17762911
000010 65 fc b1 3e df d5 8c be 57 7b 77 bd 6a 8e c1 3e
       0.34762874 -0.2750692 -0.06042036 0.37803966
000020 1f e0 32 bd 8e 90 c6 3d 90 46 88 bd 1b 15 24 be
       -0.04367077 0.0969554 -0.06654084 -0.16023676
000030 d6 68 ba 3e 9c a2 6d bd a8 d4 95 3e ab 21 59 be
       0.36408108 -0.058016405 0.29263806 -0.2120425
000040 46 07 73 be fc 85 b5 be ad 98 11 3e 39 8f f7 bd
       -0.23733243 -0.35453784 0.14218397 -0.120878644
000050 7b c4 89 3e 3b 79 72 bc 84 f9 b3 3e 65 32 6b be
       0.26907715 -0.014799411 0.35151303 -0.22968443
000060 ef 7e 8b 3e e5 d9 69 3e 92 49 59 3e b0 34 99 3e
       0.2724528 0.22837026 0.21219471 0.2992301
000070 a5 c0 6c 3e b4 20 b2 3d 37 fd 94 be e3 bd c3 be
       0.23120363 0.08697644 -0.29099438 -0.3823081
000080 87 22 b8 3e 0b 7e eb 3d b9 a4 65 3e f1 e0 21 bc
       0.35963842 0.1149865 0.22426118 -0.00988029
000090 91 38 91 be d2 f7 8d be bf 3f 04 3e 3d 6e 31 bd
       -0.2836347 -0.27728134 0.12914942 -0.043318022
0000a0 aa 35 59 be 9f 46 e1 3c 18 01 b6 be d2 70 95 3d
       -0.21211877 0.027499495 -0.3554771 0.072969094
0000b0 6f 72 43 be 55 90 5d 3e a9 74 07 be e1 a9 d6 bc
       -0.19086622 0.2163709 -0.13228096 -0.026204051
0000c0 69 34 bc be 3e 6d a3 be dc 3b 8f bd e2 9f 4b bc
       -0.36758736 -0.31919283 -0.06993839 -0.012428256
0000d0 60 25 be 3d ef 99 19 be cd b1 0f 3e ca 65 97 3e
       0.092844725 -0.15000127 0.1403267 0.29569846
0000e0 d1 22 60 3e 03 be b2 be 1f 6f af 3b fa 77 aa be
       0.21888281 -0.34910592 0.005353823 -0.3329466
0000f0 8f d9 46 be 86 46 c4 3e 76 63 8b be 0e 0f 9d 3c
       -0.1941893 0.38335055 -0.2722432 0.019172218
000100 56 89 a7 3d 26 57 37 3e 6c f2 25 3d d1 2f c1 be
       0.081804916 0.17904338 0.040514395 -0.37731794
000110 01 13 fb bd 01 30 69 3a 26 28 9d be 3e f3 cf bd
       -0.12259484 0.0008895398 -0.30694693 -0.10153817
000120 d1 67 b3 be d1 ee a0 be ce 47 89 bd 04 f4 8a be
       -0.35040143 -0.31432202 -0.06703149 -0.27139294
000130 96 78 2a 3d c1 51 07 3e 80 00 60 3e 8d 68 5f be
       0.041618906 0.1321478 0.2187519 -0.21817227
000140 13 c4 79 be 35 5f 96 be 06 f7 bb 3d 6c c1 14 3e
       -0.24391203 -0.29369512 0.09177975 0.1452691
000150 83 10 b4 be 2d f3 a6 3e 98 c2 ab be 15 0c c4 3c
       -0.35168847 0.32607403 -0.335469 0.023931542
000160 8d cd 16 3e 5e 72 8c 3e cc c9 1a 3e dd eb 60 3e
       0.14726849 0.27431005 0.15116042 0.21964975
000170 9a 51 e1 bd cf 7a 6b 3e e2 4e a0 be 59 a4 a5 3e
       -0.110018924 0.22996067 -0.31310183 0.3235195
000180 46 a8 02 3d 3e ed 8d 3e 71 e7 8a bc ef 88 ce 3d
       0.03189876 0.27720064 -0.016956063 0.10084712
000190 7b 6e df 3c 9d f4 37 3e 9f 29 a2 be 7e 03 aa be
       0.02727436 0.17964406 -0.3167238 -0.3320579
0001a0 ca a7 5f be 13 ff 84 be 79 ff 94 3e 33 a4 57 be
       -0.2184135 -0.25975856 0.2910116 -0.21058731
0001b0 35 09 cc 3e 6e 7a 10 be c5 5e 7c be a3 5b 87 3e
       0.39850774 -0.14109203 -0.24645527 0.264371
0001c0 3c 73 07 3e 20 78 0a bc c1 76 cf 3c 8a 10 3a 3e
       0.13227552 -0.008451492 0.025325181 0.18170372
0001d0 3d 7a 5e be a3 c5 d4 3e df 0d ce 3e 6d 18 e3 3d
       -0.21726318 0.41557035 0.40244958 0.11088643
0001e0 de e5 5f be cf 0d 00 3e 1e 87 a3 be ed 71 b4 be
       -0.21865031 0.12505268 -0.31939024 -0.35243168
0001f0 4a 42 31 be 7c 10 c8 bc 2c 14 95 3e 44 15 51 3e
       -0.17310444 -0.024421923 0.29116952 0.20418268
000200 48 5e 5d 3e d7 91 98 bd 5a 81 ef bd a3 96 ea bd
       0.21617997 -0.07449692 -0.11694594 -0.11454513
000210 50 bb d2 3e 68 9d b0 be 27 53 8e 3e f6 cf 90 3d
       0.41158533 -0.3449509 0.27797815 0.070709154
000220 3c a6 68 bd 38 4f 4f 3e c6 b3 2a 3c 1a 1c 92 3e
       -0.05679916 0.20245063 0.010418838 0.28537065
000230 03 2e a8 3e 87 eb 8e bd dc c9 21 be 7c a4 c3 3d
       0.32847604 -0.06978517 -0.1579966 0.09552857
000240 50 67 a2 3e 99 93 68 be 0e 6d c3 3d d0 f1 02 3e
       0.31719446 -0.22712554 0.09542285 0.12787557
000250 7d 75 53 3e 1a 76 9e be 44 da 39 3e 29 61 a4 3e
       0.20650287 -0.3094948 0.18149668 0.32105377
000260 8c b7 71 be ca 4f 43 be cd d8 ba 3e dc 96 80 be
       -0.23605174 -0.19073406 0.3649353 -0.25115097
000270 ed ab 8e 3e 0e d9 82 3c 00 8e 3b be 91 42 91 3e
       0.27865544 0.01597264 -0.18315887 0.283711

intercepts2 f4 [1, 5]
000000 e5 2b 19 bd 66 0d b6 3b 63 90 c7 bd 91 4a cb 3d
       -0.037395377 0.0055557964 -0.097443365 0.09926332
000010 09 ae 91 be
       -0.2845309
